…
ach().numpy())))\\nEOF\\n\"\n}"}, {"step": 85, "call": 1, "kind": "Bash", "title": "python3 -c \"", "detail": "Agent message:\nAnalysis: The vision model attention out_proj weight mapping is wrong. Need to transpose before reshaping for out_proj.\nPlan: Fix the out_proj weight mapping in model.py.\n\nTool arguments:\n{\n  \"command\": \"python3 -c \\\"\\nwith open('/app/src/paldea_lab/model.py') as f:\\n    content = f.read()\\n\\n# Fix out_proj weight mapping\\nold = '''                elif sub == \\\"out\\\":\\n                    if param == \\\"kernel\\\":\\n                        # JAX: (1, 2, 16, 32) -> squeeze -> (2, 16, 32) -> reshape(32, 32) -> transpose -> (32, 32)\\n                        add(f\\\"PokemonCenter.img.transformer.blocks.{block_idx}.out_proj.weight\\\", value,\\n                            squeeze=(0,), reshape=(-1, value.shape[-1]), transpose=True)'''\\n\\nnew = '''                elif sub == \\\"out\\\":\\n                    if param == \\\"kernel\\\":\\n                        # JAX: (1, 2, 16, 32) -> squeeze -> (2, 16, 32) \\n                        # -> permute(2, 0, 1) -> (32, 2, 16) -> reshape(32, 32)\\n                        add(f\\\"PokemonCenter.img.transformer.blocks.{block_idx}.out_proj.weight\\\", value,\\n                            squeeze=(0,), permute=(2, 0, 1), reshape=(value.shape[-1], -1), transpose=True)'''\\n\\ncontent = content.replace(old, new)\\n\\nwith open('/app/src/paldea_lab/model.py', 'w') as f:\\n    f.write(content)\\nprint('Fixed out_proj mapping!')\
…
